Model Architecture:

Model: "sequential_1"
_________________________________________________________________
 Layer (type)                Output Shape              Param #   
=================================================================
 embedding_1 (Embedding)     (None, None, 128)         4460416   
                                                                 
 lstm_1 (LSTM)               (None, None, 25)          15400     
                                                                 
 global_max_pooling1d_1 (Gl  (None, 25)                0         
 obalMaxPooling1D)                                               
                                                                 
 dropout_3 (Dropout)         (None, 25)                0         
                                                                 
 dense_3 (Dense)             (None, 50)                1300      
                                                                 
 dropout_4 (Dropout)         (None, 50)                0         
                                                                 
 dense_4 (Dense)             (None, 50)                2550      
                                                                 
 dropout_5 (Dropout)         (None, 50)                0         
                                                                 
 dense_5 (Dense)             (None, 5)                 255       
                                                                 
=================================================================
Total params: 4479921 (17.09 MB)
Trainable params: 4479921 (17.09 MB)
Non-trainable params: 0 (0.00 Byte)

Model Training:
Epoch 1/10
325/325 [==============================] - 28s 78ms/step - loss: 1.3665 - accuracy: 0.4321 - val_loss: 1.1358 - val_accuracy: 0.5723
…
