Model Architecture:

Model: "sequential_14"
_________________________________________________________________
 Layer (type)                Output Shape              Param #   
=================================================================
 lstm_20 (LSTM)              (None, 1, 128)            117248    
                                                                 
 dropout_19 (Dropout)        (None, 1, 128)            0         
                                                                 
 lstm_21 (LSTM)              (None, 64)                49408     
                                                                 
 dropout_20 (Dropout)        (None, 64)                0         
                                                                 
 dense_13 (Dense)            (None, 5)                 325       
                                                                 
=================================================================
Total params: 166981 (652.27 KB)
Trainable params: 166981 (652.27 KB)
Non-trainable params: 0 (0.00 Byte)
_________________________________________________________________


Model Training:
Epoch 1/20
325/325 [==============================] - 2s 6ms/step - loss: 1.4455 - accuracy: 0.3717 - val_loss: 1.5072 - val_accuracy: 0.3420
…
